…
2019-07-31 18:32:29.820462: I tensorflow/compiler/xla/service/service.cc:150] XLA service 0x559cbbdf83e0 executing computations on platform CUDA. Devices:
2019-07-31 18:32:29.820549: I tensorflow/compiler/xla/service/service.cc:158]   StreamExecutor device (0): Tesla K40c, Compute Capability 3.5
2019-07-31 18:32:57.107925: I tensorflow/stream_executor/dso_loader.cc:152] successfully opened CUDA library libcublas.so.10.0 locally
_________________________________________________________________
Layer (type)                 Output Shape              Param #   
=================================================================
conv2d_1 (Conv2D)            (None, 96, 144, 64)       1792      
_________________________________________________________________
conv2d_2 (Conv2D)            (None, 96, 144, 64)       36928     
_________________________________________________________________
max_pooling2d_1 (MaxPooling2 (None, 48, 72, 64)        0         
_________________________________________________________________
conv2d_3 (Conv2D)            (None, 48, 72, 128)       73856     
_________________________________________________________________
conv2d_4 (Conv2D)            (None, 48, 72, 128)       147584    
_________________________________________________________________
max_pooling2d_2 (MaxPooling2 (None, 24, 36, 128)       0         
_________________________________________________________________
conv2d_5 (Conv2D)            (None, 24, 36, 256)       295168    
_________________________________________________________________
conv2d_6 (Conv2D)            (None, 24, 36, 256)       590080    
_________________________________________________________________
conv2d_7 (Conv2D)            (None, 24, 36, 256)       590080    
_________________________________________________________________
max_pooling2d_3 (MaxPooling2 (None, 12, 18, 256)       0         
_________________________________________________________________
conv2d_8 (Conv2D)            (None, 12, 18, 512)       1180160   
_________________________________________________________________
conv2d_9 (Conv2D)            (None, 12, 18, 512)       2359808   
_________________________________________________________________
conv2d_10 (Conv2D)           (None, 12, 18, 512)       2359808   
_________________________________________________________________
max_pooling2d_4 (MaxPooling2 (None, 6, 9, 512)         0         
_________________________________________________________________
conv2d_11 (Conv2D)           (None, 6, 9, 512)         2359808   
_________________________________________________________________
conv2d_12 (Conv2D)           (None, 6, 9, 512)         2359808   
_________________________________________________________________
conv2d_13 (Conv2D)           (None, 6, 9, 512)         2359808   
_________________________________________________________________
max_pooling2d_5 (MaxPooling2 (None, 3, 4, 512)         0         
_________________________________________________________________
flatten_1 (Flatten)          (None, 6144)              0         
_________________________________________________________________
dense_1 (Dense)              (None, 4096)              25169920  
_________________________________________________________________
dense_2 (Dense)              (None, 4096)              16781312  
_________________________________________________________________
dense_3 (Dense)              (None, 1)                 4097      
=================================================================
Total params: 56,670,017
Trainable params: 56,670,017
Non-trainable params: 0
_________________________________________________________________
None
------CORRIENDO CON RATIO: 0.9---------------
TOTAL MUESTRAS: 23275
Muestras train: 18620
Muestras test: 4655
(23275, 96, 144, 3)
(23275, 1)
Train on 18620 samples, validate on 4655 samples
…
