…
2019-06-04 15:52:03.984247: W tensorflow/core/platform/cpu_feature_guard.cc:45] The TensorFlow library wasn't compiled to use AVX512F instructions, but these are available on your machine and could speed up CPU computations.
2019-06-04 15:52:03.984253: W tensorflow/core/platform/cpu_feature_guard.cc:45] The TensorFlow library wasn't compiled to use FMA instructions, but these are available on your machine and could speed up CPU computations.
_________________________________________________________________
Layer (type)                 Output Shape              Param #   
=================================================================
batch_normalization_1 (Batch (None, 96, 144, 1)        4         
_________________________________________________________________
block1_conv1 (Conv2D)        (None, 96, 144, 64)       640       
_________________________________________________________________
batch_normalization_2 (Batch (None, 96, 144, 64)       256       
_________________________________________________________________
block1_conv2 (Conv2D)        (None, 96, 144, 64)       36928     
_________________________________________________________________
block1_pool (MaxPooling2D)   (None, 48, 72, 64)        0         
_________________________________________________________________
batch_normalization_3 (Batch (None, 48, 72, 64)        256       
_________________________________________________________________
block2_conv1 (Conv2D)        (None, 48, 72, 128)       73856     
_________________________________________________________________
batch_normalization_4 (Batch (None, 48, 72, 128)       512       
_________________________________________________________________
block2_conv2 (Conv2D)        (None, 48, 72, 128)       147584    
_________________________________________________________________
block2_pool (MaxPooling2D)   (None, 24, 36, 128)       0         
_________________________________________________________________
batch_normalization_5 (Batch (None, 24, 36, 128)       512       
_________________________________________________________________
block3_conv1 (Conv2D)        (None, 24, 36, 256)       295168    
_________________________________________________________________
batch_normalization_6 (Batch (None, 24, 36, 256)       1024      
_________________________________________________________________
block3_conv2 (Conv2D)        (None, 24, 36, 256)       590080    
_________________________________________________________________
block3_pool (MaxPooling2D)   (None, 12, 18, 256)       0         
_________________________________________________________________
batch_normalization_7 (Batch (None, 12, 18, 256)       1024      
_________________________________________________________________
block4_conv1 (Conv2D)        (None, 12, 18, 512)       1180160   
_________________________________________________________________
batch_normalization_8 (Batch (None, 12, 18, 512)       2048      
_________________________________________________________________
block4_conv2 (Conv2D)        (None, 12, 18, 512)       2359808   
_________________________________________________________________
block4_pool (MaxPooling2D)   (None, 6, 6, 512)         0         
_________________________________________________________________
batch_normalization_9 (Batch (None, 6, 6, 512)         2048      
_________________________________________________________________
block5_conv1 (Conv2D)        (None, 6, 6, 512)         2359808   
_________________________________________________________________
batch_normalization_10 (Batc (None, 6, 6, 512)         2048      
_________________________________________________________________
block5_conv2 (Conv2D)        (None, 6, 6, 512)         2359808   
_________________________________________________________________
block6_upsampl (UpSampling2D (None, 12, 18, 512)       0         
_________________________________________________________________
batch_normalization_11 (Batc (None, 12, 18, 512)       2048      
_________________________________________________________________
block6_conv1 (Conv2D)        (None, 12, 18, 512)       2359808   
_________________________________________________________________
batch_normalization_12 (Batc (None, 12, 18, 512)       2048      
_________________________________________________________________
block6_conv2 (Conv2D)        (None, 12, 18, 512)       2359808   
_________________________________________________________________
block7_upsampl (UpSampling2D (None, 24, 36, 512)       0         
_________________________________________________________________
batch_normalization_13 (Batc (None, 24, 36, 512)       2048      
_________________________________________________________________
block7_conv1 (Conv2D)        (None, 24, 36, 256)       1179904   
_________________________________________________________________
batch_normalization_14 (Batc (None, 24, 36, 256)       1024      
_________________________________________________________________
block7_conv2 (Conv2D)        (None, 24, 36, 256)       590080    
_________________________________________________________________
block8_upsampl (UpSampling2D (None, 48, 72, 256)       0         
_________________________________________________________________
batch_normalization_15 (Batc (None, 48, 72, 256)       1024      
_________________________________________________________________
block8_conv1 (Conv2D)        (None, 48, 72, 128)       295040    
_________________________________________________________________
batch_normalization_16 (Batc (None, 48, 72, 128)       512       
_________________________________________________________________
block8_conv2 (Conv2D)        (None, 48, 72, 128)       147584    
_________________________________________________________________
block9_upsampl (UpSampling2D (None, 96, 144, 128)      0         
_________________________________________________________________
batch_normalization_17 (Batc (None, 96, 144, 128)      512       
_________________________________________________________________
block9_conv1 (Conv2D)        (None, 96, 144, 64)       73792     
_________________________________________________________________
batch_normalization_18 (Batc (None, 96, 144, 64)       256       
_________________________________________________________________
block9_conv2 (Conv2D)        (None, 96, 144, 64)       36928     
_________________________________________________________________
batch_normalization_19 (Batc (None, 96, 144, 64)       256       
_________________________________________________________________
block10_conv1 (Conv2D)       (None, 96, 144, 1)        65        
=================================================================
Total params: 16,466,309
Trainable params: 16,456,579
Non-trainable params: 9,730
_________________________________________________________________
None
Train on 11084 samples, validate on 1956 samples
Epoch 1/30

  326/11084 [..............................] - ETA: 1:30:36 - loss: 1.4624 - mean_squared_error: 2.7460 - acc: 0.0025
…
